data.pth (torch, 12415 bytes, 6 tensors)

l1.weight f4 [8, 212]
0	0x3d821f01	0.0635357
1	0x3f48290f	0.7818765
2	0x3f8630f3	1.0483688
3	0xbe45f663	-0.1933227
4	0x3e1e97e9	0.15487637
5	0x3f8b2b2d	1.0872551
6	0x3f2fd83f	0.6868934
7	0x3f2e6902	0.6812898
8	0xbdf2ad29	-0.11849434
9	0xbdda1dbe	-0.10650204
10	0x3f1f081b	0.6212174
11	0xbe07f5db	-0.1327738
12	0x3f146dd3	0.5798008
13	0x3ef2bfc8	0.47411942
14	0x3ed4a27b	0.41530213
15	0x3f8720d2	1.0556891
16	0x3ed09748	0.40740418
17	0x3fd44ce9	1.6585971
18	0x3ec080e5	0.3759834
19	0xbe703f9b	-0.23461764
20	0x3edabea8	0.42723584
21	0x3d3b3cfc	0.045712456
22	0x3ee62d04	0.4495622
23	0xbd533e52	-0.051573105
24	0x3e66f79f	0.22555397
25	0x3f0b79ce	0.54482734
26	0x3f732048	0.9497113
27	0x3f1127a2	0.567011
28	0x3f2da933	0.678363
29	0x3e970b86	0.2950098
30	0x3fa4787e	1.2849271
31	0xbd96c811	-0.073623784
32	0x3fcccd7e	1.6000211
33	0x3e4696aa	0.19393411
34	0x3f0f7d2a	0.5605036
35	0x3f84e9e1	1.0383874
36	0x3ed256fc	0.4108199
37	0x3d328617	0.04358491
38	0x399b3033	0.00029599815
39	0x3f0cbfb4	0.54980016
40	0xbe92bf10	-0.28661394
41	0x3e9d3e9d	0.30711833
42	0x3e3fee50	0.18743253
43	0xbe70e941	-0.2352648
44	0x3ecc89f9	0.39949015
45	0x3e3a596e	0.18198177
46	0x3eb1e347	0.3474371
47	0x3e6d96b6	0.23202023
48	0xbe82c495	-0.25540605
49	0x3f815aba	1.0105813
50	0x3f01dbc6	0.5072597
51	0x3f602071	0.875495
52	0x3f4f76ca	0.8104063
53	0xbf37b4dd	-0.7176035
54	0x3f7791ad	0.9670666
55	0x3c305c6d	0.0107642235
56	0xbeebeaab	-0.46077475
57	0x3ed3c757	0.41363022
58	0x3f188a9f	0.5958652
59	0x3f4c68ac	0.79847217
60	0x3c87838f	0.016542224
61	0x3fcbc02b	1.591802
62	0x3f75216f	0.9575414
63	0x3ec5d7f1	0.38641313
64	0x3ea0fcde	0.31442922
65	0x3f3b0957	0.73061126
66	0x3f5aed03	0.855179
67	0x3f3e5b9f	0.7435855
68	0x3d8c2da4	0.06844643
69	0x3f0ad38e	0.54229057
70	0x3f7c990d	0.98671037
71	0x3ea6af8f	0.32555816
72	0x3e8d80d6	0.27637357
73	0x3faa4c61	1.3304559
74	0x3fd7180b	1.6804212
75	0xbc89f221	-0.016839089
76	0x3f91f04d	1.1401459
77	0xbe815e24	-0.25267136
78	0x3f0db888	0.553597
79	0xbe4e5707	-0.20150386
80	0x3ec470f5	0.3836743
81	0x3ed60160	0.41797924
82	0x3f339166	0.70143735
83	0xbedb48dd	-0.42829028
84	0xbe8bd256	-0.2730891
85	0x3d5d2ac7	0.053995874
86	0x3e6ce150	0.23132825
87	0x3f585113	0.8449871
88	0x3ed5f00c	0.41784704
89	0x3f46370e	0.77427757
90	0x3eadc63e	0.3394031
91	0x3f3cfa50	0.73819447
92	0xbe37701e	-0.17913863
93	0x3f3d02ac	0.738322
94	0x3fbc6ff2	1.4721663
95	0x3f8ab65b	1.08369
96	0x3f8a0f13	1.078585
97	0x3f03df74	0.5151284
98	0x3f672a19	0.9029861
99	0xb9a3bc1a	-0.0003122993
100	0x3f1121c7	0.56692165
101	0xbb4d3876	-0.003131417
102	0x3e789039	0.24273767
103	0x3e8c964f	0.27458426
104	0x3f84b02b	1.0366262
105	0x3f7d06cb	0.9883849
106	0x3f19909f	0.599863
107	0xbed39350	-0.41323328
108	0x3c94df57	0.018172903
109	0xbd9f67b5	-0.077834524
110	0x3ea79088	0.32727456
111	0x3e7bbbb4	0.24583322
112	0x3e97ff2d	0.2968687
113	0x3f937c92	1.1522391
114	0x3f2d014a	0.6758009
115	0x3f17ebf5	0.59344417
116	0x3ee65661	0.44987777
117	0x3ee0d136	0.43909615
118	0x3d91318e	0.0708953
119	0xbe19631c	-0.14979213
120	0x3ed81d45	0.4220983
121	0x3eca8bae	0.39559692
122	0x3e4c83be	0.1997213
123	0x3f565208	0.8371892
124	0xbdc9fa6f	-0.098622195
125	0x3f758776	0.9590982
126	0x3f719689	0.94370323
127	0x3f91a41b	1.1378206
128	0x3e95bcb4	0.29245532
129	0x3f7d2430	0.9888334
130	0xbd97fd39	-0.07421345
131	0x3e9950ab	0.29944357
132	0xbe95bcb0	-0.2924552
133	0x3f98aa98	1.1927061
134	0x3db3bdce	0.08776437
135	0x3e031198	0.1279968
136	0x3f2aeca6	0.66767347
137	0x3b645b64	0.0034844512
138	0x3efe73c4	0.49697697
139	0x3f465d50	0.77486134
140	0x3cadd5e5	0.021220157
141	0x3f660309	0.8984838
142	0x3eb45b74	0.35226023
143	0xbd7a6c76	-0.061138593
144	0x3d7b5fc9	0.061370645
145	0x3c29071b	0.0103166355
146	0xbcc8d753	-0.024516737
147	0xbf184b62	-0.59490025
148	0x3f527325	0.82206947
149	0x3dddd7da	0.10832186
150	0x3ef10f44	0.4708196
151	0x3edee65a	0.4353512
152	0x3e1a75ef	0.1508405
153	0x3f469536	0.7757143
154	0x3d438a69	0.04773942
155	0x3ec93adb	0.39302716
156	0x3f631ca6	0.8871559
157	0x3eca07ef	0.39459178
158	0x3f10cd0a	0.56562865
159	0xbead0388	-0.33791757
160	0x3eced6db	0.40398297
161	0x3f245b1e	0.64201534
162	0x3df50ebc	0.11965701
163	0x3f0ef1b9	0.5583759
164	0x3f14a0b3	0.5805771
165	0x3f547a4a	0.829991
166	0x3f5e06ce	0.86729133
167	0x3fb40778	1.4064779
168	0xbf229733	-0.6351196
169	0xbeda467e	-0.42631906
170	0x3f552ca6	0.83271253
171	0xbec86205	-0.39137283
172	0x3f12f6ef	0.5740804
173	0x3bf62581	0.007511795
174	0x3fa55f9d	1.2919804
175	0x3f9232fe	1.1421812
176	0xbd3b0f11	-0.045668665
177	0x3f3d7fdf	0.7402324
178	0x3f1dcd46	0.6164135
179	0x3e8e6d34	0.2781769
180	0xbf120318	-0.5703597
181	0x3f1f6d83	0.62276477
182	0x3f12cd9e	0.57344997
183	0x3f63ce45	0.8898662
184	0x3f6484ae	0.89264953
185	0x3e5b43d9	0.214126
186	0x3f17bd2a	0.59273016
187	0x4000af5f	2.0107038
188	0xbe2acde3	-0.16680102
189	0xbdf710a9	-0.120637245
190	0x3f8456b8	1.0338964
191	0x3f2c752d	0.67366296
192	0x3f29c87d	0.66321546
193	0x3f4ebdb3	0.8075821
194	0x3f3b9aa0	0.73282814
195	0x3dc6c65b	0.09705802
196	0x3eedaf15	0.4642264
197	0x3f184f4e	0.5949601
198	0xbe3b24ec	-0.18275803
199	0x3f581b1e	0.8441638
200	0x3ed42995	0.41437975
201	0xbda703ee	-0.081550464
202	0x3ef11e7f	0.4709358
203	0x3eff1b83	0.49825677
204	0x3fb89ae9	1.4422275
205	0xbd8046bd	-0.06263492
206	0x3e4269ec	0.18985718
207	0x3f5fe537	0.8745913
208	0x3f0057d5	0.5013402
209	0x3fbd5faf	1.4794825
210	0x3fa16f0b	1.2612013
211	0x3f8bec07	1.0931405
212	0x3f1a25f0	0.6021414
213	0xbe63ed8e	-0.22258589
214	0x3f6a16a9	0.91440827
215	0x3eb9c8d0	0.3628602
216	0xbd836371	-0.06415451
217	0x3d6966a3	0.056982648
218	0x3fab2627	1.3371018
219	0x3f928bb4	1.1448884
220	0xbebd1e0a	-0.3693698
221	0xbf2fa2c2	-0.68607724
222	0xbea04fdd	-0.3131093
223	0xbe08d892	-0.13363865
224	0x3f1db0d6	0.61597955
225	0x3f606878	0.87659407
226	0x3b93503f	0.00449565
227	0x3f948ebc	1.1606059
228	0xbe1c22ec	-0.15247697
229	0x3fa47a0e	1.2849748
230	0x3f0abc38	0.5419345
231	0x3ee04209	0.4380038
232	0x3f45184c	0.769902
233	0xbe475b43	-0.19468407
234	0x3f031eb0	0.512187
235	0xbf57f132	-0.8435241
236	0x3fb5b180	1.4194794
237	0x3e0a5001	0.13507082
238	0x3fa8e898	1.3195982
239	0x3ef6c4a7	0.4819691
240	0x3f3d96a1	0.74057966
241	0x3f42df6c	0.76122165
242	0x3f84718d	1.0347153
243	0x3f3f3c74	0.7470162
244	0x3fae3a04	1.3611455
245	0xbea4bde3	-0.32176122
246	0xbee43fff	-0.44580075
247	0x3e23e6f5	0.16006072
248	0x3f21172e	0.62925994
249	0x3d66e1d5	0.056367714
250	0x3efac0ac	0.48975122
251	0x3efbf4cd	0.49210206
252	0x3f803716	1.0016811
253	0x3f41dff6	0.7573236
254	0x3f2fff11	0.68748575
255	0xbf087398	-0.5330138

l1.bias f4 [8]
0	0x40036a20	2.0533524
1	0x4013cfce	2.3095584
2	0x3ffbe7c8	1.9680109
3	0x3ffcfdcb	1.9764951
4	0x4009e7bc	2.154769
5	0x400e6eed	2.2255204
6	0x3fb18429	1.3868457
7	0x401deee0	2.4677048

l2.weight f4 [8, 8]
0	0x3d8cb00e	0.06869517
1	0x3e06fb7f	0.13181876
2	0xbdb803a5	-0.0898507
3	0x3d3de332	0.04635925
4	0xbea19a67	-0.31563112
5	0xbe80ffc1	-0.25195125
6	0x3df473a9	0.11936123
7	0xbea33868	-0.31878972
8	0x4032ed8a	2.7957482
9	0x3ed928a7	0.42413828
10	0x3ff16dec	1.886167
11	0x402ab597	2.6673334
12	0x400f3fb3	2.238263
13	0x3ef870d3	0.48523578
14	0x40087701	2.1322634
15	0x3d2bea15	0.041971285
16	0xbe1659da	-0.14682713
17	0x3f9ea25c	1.2393298
18	0x4007aeaa	2.1200356
19	0xbec2de81	-0.38060382
20	0xbdd72db0	-0.10506761
21	0x402c09e9	2.6881049
22	0x4010e695	2.2640736
23	0x3fd2b27d	1.646072
24	0x4038d23e	2.8878322
25	0x40562c99	3.346472
26	0x404d80d9	3.2109892
27	0x40964c7a	4.6968355
28	0x3f794ea6	0.97385633
29	0x406f7bd0	3.741932
30	0x3fa6474b	1.2990507
31	0x3ff7a4dc	1.9347186
32	0xbd0b10ec	-0.033951685
33	0x3df00b20	0.11720872
34	0x400923e4	2.1428156
35	0x3f891b49	1.0711452
36	0xbe8ddcd7	-0.2770755
37	0x4008b80e	2.1362338
38	0xbf7ac24d	-0.9795273
39	0x3f2301f6	0.6367487
40	0x3fead059	1.8344833
41	0x404b32c9	3.1749747
42	0x3f79f3ce	0.9763764
43	0x3ddc22ed	0.10748849
44	0x402f411b	2.7383487
45	0x3f128897	0.5723967
46	0xbeafb036	-0.34314126
47	0x402067f5	2.506345
48	0x400c0fa4	2.1884546
49	0x3f00e168	0.5034394
50	0x3dead900	0.11467171
51	0x3fffc37e	1.9981534
52	0x3ff48f7a	1.9106286
53	0x402a6bdf	2.662834
54	0x3f9e15aa	1.2350361
55	0x40302648	2.7523365
56	0xbed6e5f2	-0.4197231
57	0xbf431415	-0.7620252
58	0x3f778f7c	0.96703315
59	0xbe97684f	-0.2957177
60	0x3fd67b0c	1.6756301
61	0x3f680cfc	0.9064481
62	0x400a5a9a	2.1617799
63	0x4020df62	2.5136342

l2.bias f4 [8]
0	0xbe9fb970	-0.31196165
1	0x3f720ad9	0.945478
2	0x3ef26f2d	0.47350445
3	0x401afa44	2.421525
4	0x3f19c097	0.60059494
5	0x3f8b6caf	1.0892543
6	0x3f4c8509	0.79890496
7	0x3f05905b	0.52173394

l3.weight f4 [14, 8]
0	0x3ea081c3	0.31349
1	0xbdf10b69	-0.117697544
2	0x3e1b44b1	0.15162922
3	0xc08a974f	-4.3309703
4	0xbf899858	-1.0749617
5	0xc048f908	-3.1401997
6	0xbf272a4a	-0.65298903
7	0x3e4db7c7	0.20089637
8	0xbc8d7397	-0.017267032
9	0xbf12688f	-0.57190794
10	0x3e4dd3d1	0.20100333
11	0xc09a0e9b	-4.814283
12	0xc0151734	-2.3295412
13	0x3e76fdee	0.24120304
14	0xc0071115	-2.1104176
15	0x3e29b495	0.16572793
16	0xbe4483c5	-0.19190891
17	0x3f38e517	0.72224563
18	0xc04c0c87	-3.1882646
19	0xbfc5a6fd	-1.5441586
20	0xc00a5648	-2.1615162
21	0xc05b297a	-3.4244065
22	0xbf95c6d3	-1.1701301
23	0xc0758f75	-3.836881
24	0xbe1cab2e	-0.15299675
25	0xc01e5aa7	-2.474283
26	0x3f8e5640	1.1120071
27	0xc0584b5e	-3.3796
28	0x3dde3d96	0.1085159
29	0xc00abce7	-2.1677797
30	0xc01162bd	-2.2716515
31	0x3f086894	0.53284574
32	0xbe656b3e	-0.22404191
33	0xc01f26cd	-2.4867432
34	0xbfddfc72	-1.7342665
35	0xc09cbf13	-4.8983245
36	0xbf892e18	-1.0717192
37	0x3fbc93e8	1.4732637
38	0xbf2802bd	-0.6562918
39	0x3d809c78	0.06279844
40	0x3d00d7b0	0.031455696
41	0xc040219f	-3.002052
42	0xbe88057e	-0.2656669
43	0xc0a5a8c1	-5.17685
44	0x3e0b5172	0.13605288
45	0xbf086b5d	-0.53288823
46	0x3efbc8e3	0.49176702
47	0x3ed2f051	0.41198972
48	0x3ea61250	0.32435846
49	0x3ddb5f95	0.1071159
50	0xc03422b5	-2.8146183
51	0xc0288848	-2.633318
52	0xbfc7d30c	-1.5611281
53	0x3f83d070	1.0297985
54	0xc081f794	-4.061472
55	0xc005f0ee	-2.0928302
56	0x3e838dca	0.25694114
57	0xbfd7b12f	-1.6850947
58	0xbf190780	-0.5977707
59	0xbf9963eb	-1.1983618
60	0x3ee0d688	0.43913674
61	0xc0662d9e	-3.5965343
62	0xc061bcec	-3.5271559
63	0xbf257962	-0.6463834
64	0xbeaad2f4	-0.3336407
65	0xbf089f4e	-0.5336808
66	0xc026da9a	-2.6070924
67	0xc0adef6d	-5.435477
68	0xbf71bb3b	-0.94426316
69	0xbdd1a58c	-0.10236654
70	0x3f096538	0.5367007
71	0x3e2d293a	0.16910258
72	0x3e268343	0.1626101
73	0xc015f8df	-2.343315
74	0xbf275b8c	-0.65374064
75	0xc043297e	-3.0494075
76	0x3eaa61e8	0.33277822
77	0xbe10e781	-0.14150812
78	0xc0484b9a	-3.1296144
79	0xbe7f00ac	-0.249026
80	0x3e5aafa0	0.21356058
81	0xbeb86c9b	-0.3602036
82	0xc01b7966	-2.4292846
83	0xbf4aa5c6	-0.791592
84	0x3f27217c	0.6528547
85	0xbff2259f	-1.8917731
86	0xc088f1b0	-4.279503
87	0xc065a1ed	-3.5880082
88	0xbcee0723	-0.029056137
89	0x3e99f61b	0.30070576
90	0xc050b350	-3.2609444
91	0xc04eb396	-3.229711
92	0xc01cc8b3	-2.4497497
93	0xc074b29e	-3.823402
94	0x3f27c305	0.6553195
95	0xbe2bb949	-0.167699
96	0x3ea3b974	0.31977427
97	0x3efa871f	0.48931214
98	0xc0401590	-3.001316
99	0xc018785b	-2.382346
100	0xbe134a67	-0.14383851
101	0xc02c7539	-2.6946547
102	0xc0248fd1	-2.5712779
103	0xbec269d2	-0.3797136
104	0xbd3d8e15	-0.046278078
105	0xc033cc8e	-2.80936
106	0xbdb258a7	-0.08708315
107	0x3dd76966	0.1051815
108	0x3f44ec8d	0.7692345
109	0xbf4aac3d	-0.79169065
110	0xc0d33de8	-6.601307
111	0xc047e263	-3.1231925

l3.bias f4 [14]
0	0x3e90b81d	0.28265467
1	0xbecff313	-0.40615138
2	0xbdacce83	-0.084378265
3	0xbf103bff	-0.56341547
4	0x3cda4bc2	0.026647452
5	0xbe6bf5d7	-0.23042999
6	0x3c691d12	0.014228122
7	0x3ed3f745	0.4139959
8	0xbe1936ce	-0.14962313
9	0xbf0bffc2	-0.5468713
10	0xbcba550f	-0.022745637
11	0x3ea69d96	0.32542104
12	0xbf0487ce	-0.5176972
13	0x3e0c0c45	0.13676555
